…
Initializing subset dataset (mode: val) with 20559 interactions
Initializing subset dataset (mode: test) with 21682 interactions
Split results - Train: 118551 interactions, Val: 20559, Test: 21682
Data loaders created - Train batches: 58, Val batches: 11, Test batches: 11
Data loaded: 19445 users, 7050 items
User features: []
Item features: ['image_feat', 'text_feat']
Building graph and model...
Extracting training interactions for graph construction...
Extracted 118551 positive interactions for graph construction
⚠️  Important: Graph constructed using only training data to prevent data leakage
MMGCN_rec(
  (model): Net_rec(
    (v_gcn): GCN(
      (MLP): Linear(in_features=4096, out_features=512, bias=True)
      (conv_embed_1): BaseModel(512, 512)
      (linear_layer1): Linear(in_features=512, out_features=64, bias=True)
      (g_layer1): Linear(in_features=576, out_features=64, bias=True)
      (conv_embed_2): BaseModel(64, 64)
      (linear_layer2): Linear(in_features=64, out_features=64, bias=True)
      (g_layer2): Linear(in_features=128, out_features=64, bias=True)
      (conv_embed_3): BaseModel(64, 64)
      (linear_layer3): Linear(in_features=64, out_features=64, bias=True)
      (g_layer3): Linear(in_features=128, out_features=64, bias=True)
    )
    (t_gcn): GCN(
      (conv_embed_1): BaseModel(384, 384)
      (linear_layer1): Linear(in_features=384, out_features=64, bias=True)
      (g_layer1): Linear(in_features=448, out_features=64, bias=True)
      (conv_embed_2): BaseModel(64, 64)
      (linear_layer2): Linear(in_features=64, out_features=64, bias=True)
      (g_layer2): Linear(in_features=128, out_features=64, bias=True)
      (conv_embed_3): BaseModel(64, 64)
      (linear_layer3): Linear(in_features=64, out_features=64, bias=True)
      (g_layer3): Linear(in_features=128, out_features=64, bias=True)
    )
  )
)
Model parameters: 2,696,448
init trainer,verifier,tester
2025-12-26 20:37:46 - GraphTrainer - INFO - 验证结果:
2025-12-26 20:37:46 - GraphTrainer - INFO -   precision@5: 0.004094
2025-12-26 20:37:46 - GraphTrainer - INFO -   recall@5: 0.019674
2025-12-26 20:37:46 - GraphTrainer - INFO -   hit_rate@5: 0.020468
2025-12-26 20:37:46 - GraphTrainer - INFO -   ndcg@5: 0.012806
…
