…
Initializing subset dataset (mode: test) with 21682 interactions
Split results - Train: 118551 interactions, Val: 20559, Test: 21682
Data loaders created - Train batches: 58, Val batches: 11, Test batches: 11
Data loaded: 19445 users, 7050 items
User features: []
Item features: ['image_feat', 'text_feat']
Building graph and model...
Extracting training interactions for graph construction...
Extracted 118551 positive interactions for graph construction
Graph built from training data only: 26495 nodes, 263597 edges
⚠️  Important: Graph constructed using only training data to prevent data leakage
SGrec(
  (user_emb): Embedding(19445, 64)
  (item_emb): Embedding(7050, 64)
  (graph): Graph(
    (input_feat_dropout): Dropout(p=0.1, inplace=False)
    (v_ffn): Sequential(
      (0): Linear(in_features=4096, out_features=512, bias=True)
      (1): ReLU()
      (2): Linear(in_features=512, out_features=64, bias=True)
      (3): BatchNorm1d(64, eps=1e-05, momentum=0.1, affine=True, track_running_stats=True)
    )
    (t_ffn): Sequential(
      (0): Linear(in_features=384, out_features=512, bias=True)
      (1): ReLU()
      (2): Linear(in_features=512, out_features=64, bias=True)
      (3): BatchNorm1d(64, eps=1e-05, momentum=0.1, affine=True, track_running_stats=True)
    )
    (iu_gcn): IU_GCN(
      (x_dropout): Dropout(p=0.3, inplace=False)
      (edge_dropout): Dropout(p=0.2, inplace=False)
      (z_dropout): Dropout(p=0.3, inplace=False)
    )
    (v_transformer): SpatialTransformer(
      (transformer_blocks): ModuleList(
        (0): SpatialTransformerBlock(
          (attention): MultiHeadSelfAttention(
            (q_linear): Linear(in_features=64, out_features=64, bias=True)
            (k_linear): Linear(in_features=64, out_features=64, bias=True)
            (v_linear): Linear(in_features=64, out_features=64, bias=True)
            (o_linear): Linear(in_features=64, out_features=64, bias=True)
            (attn_dropout): Dropout(p=0.1, inplace=False)
            (output_dropout): Dropout(p=0.1, inplace=False)
          )
          (feed_forward): FeedForward(
            (linear1): Linear(in_features=64, out_features=512, bias=True)
            (linear2): Linear(in_features=512, out_features=64, bias=True)
            (dropout): Dropout(p=0.1, inplace=False)
          )
          (norm): LayerNorm((64,), eps=1e-05, elementwise_affine=True)
          (norm2): LayerNorm((64,), eps=1e-05, elementwise_affine=True)
          (output_dropout): Dropout(p=0.1, inplace=False)
        )
      )
    )
    (t_transformer): SpatialTransformer(
      (transformer_blocks): ModuleList(
        (0-1): 2 x SpatialTransformerBlock(
          (attention): MultiHeadSelfAttention(
            (q_linear): Linear(in_features=64, out_features=64, bias=True)
            (k_linear): Linear(in_features=64, out_features=64, bias=True)
            (v_linear): Linear(in_features=64, out_features=64, bias=True)
            (o_linear): Linear(in_features=64, out_features=64, bias=True)
            (attn_dropout): Dropout(p=0.1, inplace=False)
            (output_dropout): Dropout(p=0.1, inplace=False)
          )
          (feed_forward): FeedForward(
            (linear1): Linear(in_features=64, out_features=512, bias=True)
            (linear2): Linear(in_features=512, out_features=64, bias=True)
            (dropout): Dropout(p=0.1, inplace=False)
          )
          (norm): LayerNorm((64,), eps=1e-05, elementwise_affine=True)
          (norm2): LayerNorm((64,), eps=1e-05, elementwise_affine=True)
          (output_dropout): Dropout(p=0.1, inplace=False)
        )
      )
    )
    (outl): Linear(in_features=128, out_features=64, bias=True)
    (activate): ReLU()
  )
)
Model parameters: 4,313,664
init trainer,verifier,tester
2025-12-15 19:55:14 - GraphTrainer - INFO - 验证结果:
2025-12-15 19:55:14 - GraphTrainer - INFO -   precision@5: 0.004978
2025-12-15 19:55:14 - GraphTrainer - INFO -   recall@5: 0.023965
2025-12-15 19:55:14 - GraphTrainer - INFO -   hit_rate@5: 0.024891
2025-12-15 19:55:14 - GraphTrainer - INFO -   ndcg@5: 0.015100
…
